models/bajaj_dominar_headlight_autoencoder.pth (torch, 41992 bytes, 7 tensors)

encoder.0.weight f4 [16, 1, 3, 3]
00000000: 39e0 5e3d d4f8 b03d f49e 7abe c773 84bd
00000010: 474d 45be d40d ccbd ee88 b1be 08a7 4b3c
00000020: 814e c83d 91e4 f13d 9cc4 423e 958d fa3d
00000030: ee1f 53be 271d c4be 8a8a 9dbe 71b7 45bc
00000040: 3daa 473e 42b6 663d df3e 15be 3fe0 b1be
00000050: a15a 9bbe c55b af3d 4c74 543c 156d a0be
00000060: cb6b 1d3e d1f9 78be 2a5e 67be 2f70 eebc
00000070: 4e16 513e ce33 75be c069 4d3e fef7 0a3e
00000080: 98ef 2d3d 9090 6bbd 5116 99be 9dc6 74be
00000090: 85ef 40be e135 283e a8a3 7abe 54fc 863e
000000a0: 79a6 7e3e 9f3e 00bd 3cc6 b7be 9157 97be
000000b0: e525 5cbe bf8e afbd 1524 b23e e3d9 36be
000000c0: e9b4 3abc c9c6 963e 7d9d c53e c002 693d
000000d0: b0c2 ff3e afd1 643e 0f82 a2bd 9e1a 693d
000000e0: 1328 afbc 5d6c 1abe b6f1 543d 3da7 af3a
000000f0: adc4 6b3e 75d6 22bd 6332 a63d 057d 7cbe
00000100: 99f7 0abe 7265 4bbd 2665 c5bd d0cc 46be
00000110: 31f2 b7be 50b2 97be 643e a4be d3f2 9a3c
00000120: c08a b9be ec46 f1bc d9e7 b8bd d8ea 2abe
00000130: dbdb c2bb 312e 9fbe 9a1a afbe cb7f 07be
00000140: f517 7f3d ace8 cb3e cfec 783e 4198 583d
00000150: 0d14 da3e ae5a b93d 3856 39be c396 e53d
00000160: 9cdb b0bd a7f5 86be 5deb 793e 56c2 233e
00000170: 5fdf 41be 0cbe b23d 4a3d 1dbe 1756 a7bd
00000180: 315c e8bc 4222 e63c 6ab8 02be 1c06 6abd
00000190: 926e 45be 6ca6 30be 5855 94be 426b 4c3d
000001a0: f7f9 76be 865e e4bd ec5d 94be 8f95 4b3e
000001b0: 0141 93be 2332 8e3c cd60 ba3c d00c 07be
000001c0: cfd9 95be 8eed bebe 48a1 fdbd c75a 0dbd
000001d0: 7a64 c93d c1cd 77be b374 fdbd 996a 68be
000001e0: 1a34 a1bd b179 26be dd7a 903c 5dee 703d
000001f0: cefd 73be e50f 65be d209 313e 3c7b ea3d
00000200: 96ff e73b fc67 4fbe e1ea 97be 78ca 33be
00000210: 11b2 c9be 0b11 95be e78c b0be 1a3c 6d3e
00000220: e05b 4bbe a7c1 9d3b 81d5 c4be 76aa 69be
00000230: 0297 58bc 27a5 aabe 9f4c 0dbd b5cb f3bd
0.054413054 0.0864121 -0.24474698 -0.06467395 -0.1926776 -0.09963575 -0.34674782 0.01242996
0.097805984 0.11811174 0.19020313 0.12234036 -0.20617649 -0.3830349 -0.3076976 -0.012067662
0.19498535 0.05632616 -0.14574765 -0.347414 -0.30342582 0.085624255 0.01296718 -0.31333223
0.15373151 -0.24314047 -0.22594514 -0.029106228 0.20418665 -0.23945543 0.20059872 0.13571164
0.042464823 -0.057510912 -0.2989984 -0.2390389 -0.1884137 0.16426803 -0.24476492 0.26364386
0.24868192 -0.03130972 -0.35893428 -0.29558995 -0.2149883 -0.085721485 0.34793153 -0.17856555
-0.011395671 0.29448536 0.38596717 0.05688739 0.49953222 0.22345613 -0.07934963 0.05691015
-0.021381414 -0.150804 0.051988326 0.0013401281 0.23024245 -0.039755303 0.08115079 -0.24657066
-0.13571014 -0.049657293 -0.09638433 -0.19414067 -0.35926965 -0.2962823 -0.3207885 0.018914616
-0.3623867 -0.029452763 -0.090285964 -0.16691148 -0.005946619 -0.3108993 -0.34199983 -0.13232343
0.062278707 0.39825952 0.24309085 0.052879576 0.42593423 0.09050499 -0.18099296 0.11210396
-0.08635637 -0.26359293 0.2440619 0.15992102 -0.18932866 0.08727655 -0.15355411 -0.08170717
-0.028364273 0.028092507 -0.12765661 -0.057134733 -0.1928046 -0.17250985 -0.28971362 0.049906977
-0.24118792 -0.111508414 -0.28977907 0.19881271 -0.28760532 0.017357891 0.022751236 -0.13188481
-0.29267737 -0.37290615 -0.123842776 -0.0345104 0.098336175 -0.24199583 -0.12375774 -0.22696914
-0.07871266 -0.16257359 0.01763671 0.05882107 -0.23827288 -0.22369345 0.17288902 0.11449286
0.0070800288 -0.2025451 -0.29671386 -0.17557704 -0.39393666 -0.29114565 -0.344825 0.23167458
-0.19859266 0.004814345 -0.3844414 -0.22818932 -0.013219597 -0.33329126 -0.0344969 -0.119040884

encoder.0.bias f4 [16]
00000000: f696 243e 4471 703e 3613 4b3e db84 403e
00000010: b6c5 73bd 47cb 67bc 2a73 703e 9deb 8d3e
00000020: 86a1 0e3e f05d c6bc 3261 a43e 0cdf a6bc
00000030: 2396 053d 7733 4c3e 4fe5 113e 9a4e 943e
0.16073212 0.23480707 0.19831547 0.1880068 -0.059514724 -0.014147586 0.23481432 0.2771882
0.13928804 -0.024214715 0.32105404 -0.020370029 0.032613885 0.19941507 0.1424763 0.28966218

encoder.2.weight f4 [32, 16, 3, 3]
00000000: d4a3 103e 44d0 b7bc b953 3cbe 8ae6 d03d
00000010: eecc 8abd 6f3b 35be 529a ca3d 14af 10be
00000020: 0758 08bd f26b c23d a074 f83d a5b3 273c
00000030: 4c66 c33d a9ad 0b3d 9988 2e3d 2e0f ab3d
00000040: 61a1 943c eb1b 063d a788 303e 462f 33bd
00000050: 569c 00bd 04a8 cc3d 8881 8dbd 35f8 11bd
00000060: 8e7e 923d 90c7 e1bd 9351 abbd f270 b5bc
00000070: 7674 3ebe 5404 a93c 9d14 1fbe 30b7 06be
00000080: 5aa9 b53d 5709 06bd 9484 8d3d ae57 153e
00000090: 4fed 6c3e 53d8 2abd 510b 7cbd 4921 d53d
000000a0: 7fb7 063d 482a c8bb fdf5 f73d b904 863d
000000b0: 9c58 153e ef32 123e c0e6 2b3e 1337 4e3e
000000c0: d8a3 623c 3793 453e 9468 823e 7188 013e
000000d0: 2951 463e 98f3 533e 4ede 1e3e c0b2 3f3e
000000e0: 8976 8b3d e5db 173d f5c9 443d fe06 bf3d
000000f0: c440 c8bc 7bcc e33c f9d9 a73c 7e79 4a3e
00000100: b3ab c0bc 1243 24be cc59 163d a735 25be
00000110: 22a7 ebbd 3679 103e 9bf4 ccbc c6d6 02be
00000120: b101 da3d de2b 1f3d 0ca8 c2bd 71dd 9c3d
00000130: dc50 80bd 4ab4 46be 496d 173e f2b6 d4bb
00000140: b5a5 36bd c9a0 48bd bc1c a33c aeb4 223e
00000150: 9720 913b f9c1 363d 9ddc 343e c7ff 8fbd
00000160: d498 2f3d 147e 4c3e a60c 5bbb 13ba 593d
00000170: 08c6 283e bb70 3cbd eb7d 05be 3662 af3d
00000180: 65c8 d83b 62ff 94bb 3b05 2d3d b112 103e
00000190: 3038 9d3c 8846 0cbd 4205 fd3d 8ed5 17bd
000001a0: b760 3ebe 2a6e 923d 4de2 9cbc 26e4 01bd
000001b0: e607 5e3e 8363 353c 42dc 01be e902 5b3e
000001c0: 2400 20be f93a d3bd a6bb 523e aa4c 853c
000001d0: 55ad a4bd 050a 513e 57d2 a0bd 9ae8 a9bd
000001e0: b65b 003e d724 0abe 8953 edbd c7b2 6e3d
000001f0: c017 99bd 024c 8cbd 2174 373e 7715 17be
00000200: 015e 2dbe b0b9 c63d ba7a e5bd f6d6 1bbe
00000210: b10f a23d 467b e83c de77 ba3d dca8 133d
00000220: b0ed cbbb c864 0fbe 7b57 cb3d 5f26 44bd
00000230: 68c3 64be 74cc 2e3e c282 a5bc c0ec 173d
00000240: f1a2 993d c428 903d 0af3 e33d 79f7 ca3c
00000250: a336 d1bc 436f df3d 882d 763d 72a4 513d
00000260: 5f6a da3b 75fc 9e3d c491 d73d 61fc a13d
00000270: e572 8c3d 66a5 cf3d 7c93 983d 3394 be3d
00000280: 4845 ecbc e687 04bc 6714 433a 2209 f03d
00000290: 12c8 1f39 8de4 17bd ea3a 263d 4b53 45bc
000002a0: 7e6c fc3d 8f07 603c 7f0d 2e3d 234e 943d
000002b0: 6de8 8b3c 9d52 913b 68d8 bb3d 43da a83d
000002c0: c83d 39bc a8e7 23bc a243 9e3c 838b c83c
000002d0: d8f6 893d c7e1 173e a300 153e fa1b ba3d
000002e0: c556 8c3d a955 913d 0818 66bc f4b7 bf3d
000002f0: 0fa3 153e 8c4c f0ba 4e9e 47bd 1f8c 20be
00000300: 4da5 11be bf24 0fbe 79ae ebbd f32b f5bc
00000310: 6182 2bbe 4cf2 d2bd eb39 b5bc 9304 bbbc
00000320: 3293 e03c aeec 893c 8bdb 18bd 0d3c f83c
00000330: ed38 d73d 0b0e cb3d 3402 2fbd 4250 14bd
00000340: bcb2 9fbb f7cd 773d ce45 0c3d ffe1 6f3d
00000350: 0cb0 9a3d 0dc4 843d e4f7 e73d 6142 113d
00000360: 0e2e 76bc 104f 673d 3731 7cba e64a 5abc
00000370: 0902 413d 589f 17bd 74bd c13d 8db6 b6bc
00000380: 52b0 263d 6704 4b3d 64a8 cc3d 1d33 dabd
00000390: bba3 af3c e63b 64bd 18de 09be c3da 3a3c
000003a0: c554 94bc 8b64 8cbc a7a9 ad3d 1b2e ea3d
000003b0: e570 293d c041 483d 7d6b e53c f034 b5bc
000003c0: 0d52 8dbc 0c3b f63c 881a fb3b 54d3 bd3d
000003d0: 8119 823d f3d1 b9b9 3069 003d 429c a93d
000003e0: a938 bfbc a722 a13d 918e d7bc 91ab ff3d
000003f0: fd0e e83d 645c 13bd 4382 523d 16c5 1a3d
0.14124995 -0.022438176 -0.18391313 0.10200222 -0.067773685 -0.17698453 0.098927155 -0.14129287
-0.033287074 0.09493245 0.121316195 0.010235702 0.09540996 0.034101162 0.04261074 0.08352505
0.018143358 0.03274147 0.17239629 -0.043746255 -0.031399094 0.09992984 -0.06909472 -0.0356371
0.07153045 -0.11024392 -0.083651684 -0.022148583 -0.18599114 0.020631947 -0.15535207 -0.13155818
0.08870192 -0.03272375 0.06910053 0.14584228 0.23137401 -0.04171021 -0.06153423 0.10406739
0.03288984 -0.006108556 0.121074654 0.065438695 0.14584583 0.14277242 0.16787243 0.20138197
0.013833009 0.1929444 0.25470412 0.12649705 0.19366898 0.20698392 0.1551449 0.18720531
0.06809718 0.037074942 0.048044164 0.093275055 -0.024444945 0.027807465 0.02048968 0.19772908
-0.023519373 -0.1604121 0.03670673 -0.16133748 -0.115064874 0.14108738 -0.02501898 -0.12777242
0.10644854 0.038860194 -0.09504709 0.07659424 -0.06265423 -0.19404712 0.14787783 -0.0064915353
-0.044591624 -0.04898146 0.019911163 0.15889236 0.004428934 0.04461858 0.17662282 -0.070312075
0.042870358 0.1996997 -0.0033424287 0.05315597 0.16481793 -0.046005946 -0.13036315 0.08563654
0.0066156858 -0.0045470456 0.042241316 0.1406963 0.019191831 -0.03424695 0.123545185 -0.037068896
-0.18591581 0.071499184 -0.019150877 -0.03171172 0.216827 0.011071089 -0.12681678 0.21387829
-0.15625054 -0.103139825 0.20579395 0.016271908 -0.08040873 0.20413978 -0.07852619 -0.08296318
0.12534985 -0.13490616 -0.11588199 0.058275964 -0.07475233 -0.06850435 0.17915393 -0.14754282
-0.16930391 0.09703386 -0.11205049 -0.1521872 0.07913149 0.028379094 0.09104894 0.03604971
-0.006223403 -0.14003289 0.09928795 -0.047888156 -0.22340167 0.1707018 -0.020203952 0.037091017
0.07501782 0.070390254 0.111303404 0.024776207 -0.025538748 0.10909893 0.060102016 0.051182218
0.0066655125 0.07762996 0.105258495 0.079094656 0.06857852 0.10138969 0.074500054 0.093056105
-0.02884163 -0.008089041 0.00074417 0.11720492 0.00015237954 -0.037083197 0.04058353 -0.012043784
0.12325381 0.013673677 0.04249334 0.07241466 0.017078603 0.004434897 0.091721356 0.08244755
-0.011306234 -0.010003962 0.01931936 0.024480587 0.06736535 0.14832221 0.14551024 0.09087367
0.068524875 0.070964165 -0.014043815 0.09361258 0.14612983 -0.001833336 -0.048734955 -0.15678452
-0.14223213 -0.13978861 -0.115078874 -0.029928183 -0.16748954 -0.10300121 -0.022122344 -0.02282933
0.027413938 0.01683649 -0.037318747 0.030302072 0.105089046 0.09914788 -0.04272671 -0.036209352
-0.0048736017 0.060499158 0.03424626 0.058565136 0.075531095 0.06482706 0.11326578 0.035463694
-0.015025629 0.056471884 -0.00096203707 -0.013323521 0.04712108 -0.037017196 0.094599634 -0.022303844
0.040695496 0.049564745 0.099930555 -0.1065428 0.021440377 -0.055721186 -0.13463628 0.011404696
-0.018106828 -0.017137786 0.08479624 0.11434575 0.04136743 0.04889083 0.028005356 -0.02211997
-0.017251039 0.030057453 0.007663075 0.09268823 0.06352521 -0.00035442374 0.031350315 0.08281757
-0.023342447 0.078679375 -0.026313098 0.124838956 0.11330984 -0.035976782 0.05139376 0.037785612

encoder.2.bias f4 [32]
00000000: bdc3 c33d 5a8b 0a3d a738 32bb 9123 d83d
00000010: 3401 bb3d e8c7 113b 98e9 b63d 8bf5 5fbb
00000020: 2663 9a3d f334 b83d e916 f43d b007 acbc
00000030: b850 e93d 43a0 d73d f7b8 543d f0bd 0abd
00000040: e5dc c13d ce04 953d ef0f 723d ffcd a03d
00000050: fdd0 953d 3278 b43d 871a 083e 06b7 313d
00000060: bf39 fe3d 11f3 d7bc d184 2a3d 3245 bc3d
00000070: d4e0 8dbc 8eaf 323d c9c8 fd3d 127e 263d
0.095588185 0.033824302 -0.0027194412 0.10553659 0.09131089 0.0022244398 0.08931273 -0.0034173455
0.07538442 0.08994474 0.11918432 -0.02099976 0.11392349 0.10528614 0.05193421 -0.033872545
0.094659604 0.07276307 0.059097227 0.07851791 0.07315252 0.08811988 0.1329137 0.043387435
0.12413358 -0.02636102 0.04163057 0.091928855 -0.01731912 0.043624453 0.12391812 0.040647574

decoder.0.weight f4 [32, 16, 3, 3]
00000000: 1367 c7bb ac2e 373e 19e4 edbc bcc8 e53d
00000010: 62e4 023d b1b8 5d3e 6814 1ebd 332e 7d3e
00000020: f006 bdbd d1c7 a9bd b89f 3bbe bb21 6fbe
00000030: 9c05 1dbe 8733 173d d006 63be 6180 60bd
00000040: 8692 a4bd 91e9 40be 7fe0 b8bd a5f1 27be
00000050: 0893 6cbe 9daf b1bd 1a61 58bd 2766 02be
00000060: f6f7 3dbe a415 25be 0d8f eebd 2712 c6bc
00000070: a4cb 313d 5314 9cbd 96ea 13be a7c0 4ebe
00000080: d048 bebd bd48 aabd a264 dfbb c02a a33c
00000090: c49f 8a3d aa05 333e 1507 e4bc 5f8b d23c
000000a0: fcc0 6dbd 0949 773c 9fb2 4cbc afb5 2abe
000000b0: 5824 df3c d7e9 c93d 996f 51bd 102d 083e
000000c0: e2cd 84bc 6c29 6e3e 76cf 213e 67ec fa3c
000000d0: 23bb 83bd 0869 743e 43bd 11bd 39dd 293d
000000e0: f367 743d ec43 9cbc bdb4 08bd c50b 2d3d
000000f0: fe61 16be e0af b53d c12e 5b3c 746e 87bd
00000100: 6b03 5fbd aeb1 8f3d 71b3 a8bc b983 cb3c
00000110: 7fdf 903d eb80 54bd 6712 a1bc c36e a53c
00000120: 95ce aabd beb1 babd 1955 41be 28ec 923d
00000130: 19c0 cb3d 4aff 6abe a3fb 9d3d 1a7b ffbd
00000140: d7d3 c6bd a1e4 99bd 6895 08be 1a20 8fbe
00000150: aa9d bf3d 6ea7 433d 05b7 3dbe 0ba0 c13d
00000160: ff76 c3bd b7c7 c2bd 2eee 2dbe f15f f43c
00000170: 51a5 dabd 79de 0e3d 8b88 27be 34fb 4abe
00000180: 6a53 babd b60f ebbd c84c 1bbe ea0c 253d
00000190: 8550 6abd 7e83 47be 93e9 23bd a52f 3ebd
000001a0: b4bb 12bb e11b cdbc 68aa 9dbd 66e6 43be
000001b0: 619e e3bc 6cb4 6d3e 9471 f83b 03df cb3d
000001c0: 3817 873e 9d27 7f3c d820 b63b 1f1a cc3d
000001d0: dd7d d03c 0281 f0bd ea1e d33d 73ab 373d
000001e0: 7cf4 2b3e bb4f 9dbc 98e0 7abe 0105 f0bd
000001f0: 5fa2 ca3c 0006 293c c849 a73d 94e4 8b3c
00000200: c5c6 cd3d 958b 403e 80b2 33bd 5fc6 203e
00000210: 8a33 a33d b8d1 df3d c95f 4fbc fc09 4abd
00000220: 00b3 19be 6859 33be f657 373e c5b9 643d
00000230: d923 1fbe 2652 c03d 1f05 a4bd d2e9 7fbe
00000240: e58a 1cbb 5275 94bd 378e 773d 2135 07bc
00000250: 302f a7bc 373d 3e3c d168 643d 0222 9abc
00000260: c190 223d e5b6 25bd cde3 9c3c 489d be3d
00000270: 27c1 153c 6fd7 1e3d 2415 cf3d ee42 fb3c
00000280: c3a7 9a3b 2dc2 763d e8a3 463d 15c3 db3d
00000290: 62c3 103c 7e56 953d 462a 7cba 0dcd 083e
000002a0: 9606 303d b6e7 4a3d 9a12 063d c58e 4c3d
000002b0: c4ea 8ebd c99d 6d3d 3f68 f33b bb4c adbc
000002c0: 8123 32bc 79a0 2ebc e679 a1bd eac1 8bbd
000002d0: 4cc2 edbc ef50 b4bc ca7f 3bbd 3459 4e3d
000002e0: 8f19 c23d 9d74 01bb e6e5 4bbc 5b3f edbc
000002f0: 603b 07bd 7aba 3c3d e32b 22bd 98b6 b0ba
00000300: 14a2 ad3d c3b0 44ba d530 a3bd 47db 033d
00000310: 81b3 b9bd 395b 5abd 740b 68bd 629f d13c
00000320: 2453 b8bd e61d 93bd eb7e 093d 6f5a 353d
00000330: 4f15 cabd d009 773b 87e8 a93c 0e71 923c
00000340: 4581 96bc 2fe8 143d 3357 0ebd dd7e a7bd
00000350: 2673 6cbd 1fd7 403d c75d 68bd 14f2 98bc
00000360: dedb 3a3d 42ba 8f3d 7d64 423c 982d d33d
00000370: ae5a 723d 4c8b 023e dda6 343b 9e29 123d
00000380: 433b 993d f45a 883d 26ac c83d 0796 d43d
00000390: 37a5 c53d 10aa de3d 4a19 15bb e118 9d3d
000003a0: 4ba7 933d 0462 a83d 990c b33c d5f1 803c
000003b0: 4f16 e43c b77d 073d 23ae 81bc 457a c83d
000003c0: 4ce2 a83d 7a58 083c 9f87 dabc d1ba c93d
000003d0: 396a 32bd c4af 573d 9cc4 8cbc 0e76 943d
000003e0: f9a3 fbbc 15aa 873d 156b 09bd 8f82 c1bc
000003f0: 99f5 8cbc c723 dcbd fbfb 4bbd d61b eabb
-0.0060852855 0.17888898 -0.02903943 0.11219928 0.031956084 0.21652485 -0.03859368 0.24724655
-0.09229839 -0.08290065 -0.18322647 -0.23352711 -0.15334171 0.036914375 -0.22170568 -0.05480993
-0.0803576 -0.18839099 -0.09027194 -0.16400774 -0.23102963 -0.08676074 -0.05282698 -0.1273428
-0.18551621 -0.16121536 -0.116483785 -0.024178578 0.043407097 -0.07621064 -0.14444956 -0.20190679
-0.09291232 -0.08314655 -0.0068174163 0.019917846 0.06768754 0.1748263 -0.027835408 0.025701223
-0.058045372 0.0150930965 -0.012493758 -0.1667087 0.02723901 0.098590545 -0.05113182 0.1329844
-0.016211454 0.23257989 0.15801796 0.030630304 -0.06432178 0.23868191 -0.035580885 0.04147074
0.059669446 -0.019075356 -0.03337549 0.042247552 -0.14685819 0.08871436 0.013377846 -0.06612864
-0.05444662 0.070163116 -0.020593377 0.024843084 0.070738785 -0.05188076 -0.019662095 0.020194417
-0.08340184 -0.09115933 -0.18880118 0.071739495 0.09948749 -0.22948948 0.077140115 -0.12474652
-0.09708374 -0.07514311 -0.13338244 -0.2795418 0.09356244 0.047767095 -0.18526848 0.09454354
-0.09544181 -0.09510749 -0.1698539 0.029830905 -0.10676063 0.034880135 -0.16360681 -0.19822389
-0.09097941 -0.11477606 -0.15166008 0.04029552 -0.057205696 -0.19483754 -0.040017676 -0.046432156
-0.0022389712 -0.025037708 -0.07698518 -0.19130859 -0.027785482 0.23213357 0.007581899 0.099546455
0.26384902 0.015573409 0.0055581145 0.0996592 0.025450641 -0.11743356 0.10308631 0.04484124
0.16792482 -0.019203058 -0.24499738 -0.117197044 0.024735628 0.010316372 0.081683695 0.017076768
0.10047678 0.18803246 -0.043871403 0.15700673 0.07968815 0.109286726 -0.012657114 -0.049325928
-0.1500969 -0.17514575 0.17904648 0.055841226 -0.15541019 0.093906686 -0.08008789 -0.24991539
-0.0023886499 -0.072489396 0.06043836 -0.008252413 -0.020408243 0.011611274 0.055764023 -0.018815044
0.03968883 -0.040457625 0.019151593 0.09307343 0.009140289 0.038779672 0.10111454 0.030671563
0.004719706 0.060243774 0.048496157 0.10730568 0.008835645 0.07291888 -0.00096193363 0.1335947
0.04297503 0.049537383 0.032732584 0.049940843 -0.06978372 0.058011804 0.0074281986 -0.021154752
-0.010872723 -0.010658377 -0.078845784 -0.068240955 -0.029023312 -0.022011248 -0.045776166 0.05037804
0.09477531 -0.0019753345 -0.012444949 -0.028960874 -0.03301561 0.046076275 -0.039592635 -0.0013482152
0.084781796 -0.0007503146 -0.07968298 0.03219154 -0.09067441 -0.053309653 -0.056651548 0.025588695
-0.09000233 -0.07183437 0.033568304 0.044275697 -0.098673455 0.0037695058 0.02074076 0.017876174
-0.018372187 0.03635424 -0.03475113 -0.08178494 -0.057727 0.047080155 -0.056730058 -0.01867012
0.045619838 0.07017948 0.011864779 0.10311431 0.05916851 0.1274845 0.0027565279 0.03568422
0.074820064 0.06657973 0.0979846 0.10380178 0.09650653 0.108722806 -0.002275067 0.07670761
0.07209643 0.0822182 0.021856593 0.015740314 0.027842669 0.033078875 -0.015830105 0.09788946
0.08246288 0.008321876 -0.026675997 0.098500855 -0.043558333 0.052657858 -0.017183594 0.0724908
-0.030717837 0.066242374 -0.033549387 -0.023621826 -0.017206954 -0.107490115 -0.049800854 -0.0071444316

decoder.0.bias f4 [16]
00000000: 9211 36bd 561e 453c 4650 163d ab45 f03b
00000010: f5e2 1b3c 2496 4e3d b89d 86bd da66 8cbb
00000020: d20f 2b3d 0c39 4c3d 599a d93d b354 2ebd
00000030: 9f1b 013d ee59 323c d129 04bd 12c2 c83d
-0.04445035 0.012031158 0.03669765 0.007332524 0.00951456 0.050436154 -0.06573051 -0.004284722
0.041763134 0.04985909 0.106251426 -0.042561244 0.031520482 0.010885699 -0.03226644 0.09802641

decoder.2.weight f4 [16, 1, 3, 3]
00000000: 5b50 19be 027e 9f3d 911f 633e b9ed 5e3e
00000010: 0f5e 6a3e 73c7 cebd 3877 89be 43e5 9abd
00000020: 66ce 113d 93bf 1b3e fd09 b5be b6ee 8abc
00000030: 3c2c 103e f978 d9bd 7f93 3b3d c290 69be
00000040: fbc7 8bbd 2876 49be 24d9 8ebe bdf5 4e3c
00000050: c48c 42be 3745 99be 6c5a 64be df66 25be
00000060: 6177 d03d b213 923d e2f1 8dbe 54af c1bd
00000070: 4ce9 a9be ae9e 833e eec4 c6bd db13 7bbd
00000080: b333 9cbe 08cf 433e 274b 853e 6e0d ce3d
00000090: 44a6 203e cb5e b8be 0782 84be ed81 26be
000000a0: cdb7 afbd 2a06 333e edaa 29be aa7c 833e
000000b0: 3a9c 6dbc 4f06 7e3e f060 603e 817e 313e
000000c0: 8207 5a3e d7e6 b83d a7c5 f6bd eb95 e1bd
000000d0: 2281 693e 795c 6fbc 1b2f 4dbe 1c50 883e
000000e0: eaa8 983e 1d20 153e 0fde f7bd c9ce 7bbe
000000f0: f211 0e3e aef2 9fbc 1686 5b3d 2931 873e
00000100: c07d 72bd 6a96 16be ce72 443e f31f 1fbe
00000110: 5e46 8b3e 2c63 95be 5fef 063e f4a4 9ebe
00000120: beb5 1bba 0f31 08bc d377 483d 15ab b5bd
00000130: fbc1 a5be cd76 aabe 7f24 31be 33fc 91be
00000140: 26ba 36be 4dc6 c3bc e007 91be 17cf 89be
00000150: 484f 8fbe 0922 bc3c aefd 403d 38f8 96be
00000160: 87a8 8dbe 477b 07be a0b8 bbbe 5b1a 33be
00000170: b942 83be 63b0 cb3d 34b2 f93d 29d0 8bbe
00000180: aaa8 89be eb0d bebc eee8 cc3d 649d abbe
00000190: 7b69 9f3d 3d31 38bc 4b63 76be 1006 83bd
000001a0: 0409 24be a607 86be 7b99 f73d 6bd6 2cbd
000001b0: abfb 24be bd02 9b3d ef84 6ebe 1c3d adbe
000001c0: 2054 193e c64d 88bc e86f 6fbd 4d53 933e
000001d0: 720a 8a3e eec7 21be 9277 4bbe 0a53 ab3e
000001e0: bbf5 28be 4371 6ebe 976e f13d e02a b1bc
000001f0: c47f 3b3e b5b0 833e 95df a43e b7a0 473e
00000200: bd29 b83e bf75 233e 2aff 1ebe fda6 b63e
00000210: 72ed 383b 8e67 36bc 204c ae3d 15af d13d
00000220: 4ac2 3dbe 0c48 09be 1790 0b3e c762 19be
00000230: 1c8d 63bd fba0 f2bd 1c60 5ebe f226 da3d
-0.1497206 0.07787706 0.2218001 0.21770371 0.22887443 -0.10096636 -0.2684877 -0.075632595
0.035597228 0.15209799 -0.35359183 -0.01695953 0.14079374 -0.10618777 0.04579496 -0.22809127
-0.068252526 -0.1967398 -0.2790004 0.012631831 -0.1899901 -0.2993562 -0.22300118 -0.16152523
0.1017902 0.07132663 -0.27723604 -0.09457269 -0.33185804 0.25707 -0.0970553 -0.061298233
-0.30508193 0.19121945 0.260339 0.10061155 0.15688425 -0.3600982 -0.25880453 -0.162605
-0.08579979 0.1748282 -0.1656911 0.2568105 -0.014502579 0.24807094 0.21911979 0.17333414
0.21291927 0.09028404 -0.12049418 -0.11014923 0.22803167 -0.01460945 -0.200375 0.2662362
0.2981637 0.14563031 -0.12102901 -0.24590601 0.13874033 -0.019524898 0.05359467 0.26404694
-0.059201956 -0.14705816 0.1918442 -0.15539531 0.27202123 -0.29177225 0.1317725 -0.30985224
-0.00059398625 -0.008312478 0.0489424 -0.08870522 -0.32374558 -0.33293763 -0.17299078 -0.28512725
-0.17844447 -0.023898268 -0.2832632 -0.2691581 -0.27990174 0.022965448 0.047116928 -0.2948625
-0.2766764 -0.1323062 -0.36664295 -0.17490523 -0.25636843 0.099457525 0.12192193 -0.2730725
-0.26886493 -0.023199996 0.10005365 -0.33518517 0.07783791 -0.011242208 -0.24061315 -0.06397641
-0.16019064 -0.2617771 0.12089821 -0.042196672 -0.16111629 0.07568882 -0.23292898 -0.33835685
0.14973497 -0.016638648 -0.05845633 0.2877449 0.26961094 -0.15798923 -0.19869831 0.3346179
-0.16499989 -0.23285393 0.117886715 -0.02162689 0.18310457 0.25720754 0.3220183 0.19494902
0.35969344 0.15962885 -0.15527025 0.35674277 0.00282177 -0.011133088 0.085106134 0.10238472
-0.18531147 -0.1340639 0.13629185 -0.14979087 -0.055554494 -0.11847111 -0.2171635 0.106519595
