models/tvs_raider_headlight_autoencoder.pth (torch, 42028 bytes, 7 tensors)

encoder.0.weight f4 [16, 1, 3, 3]
0.11049563 -0.1265066 -0.01725462 0.20431143 -0.0942977 0.30794218 -0.03101035 0.021546789
-0.08543366 -0.08117373 -0.36133233 -0.17992091 -0.14135617 -0.02792152 0.1438669 0.1431863
-0.14910173 -0.17665614 -0.19552402 -0.22338739 -0.3529483 0.035770997 -0.24087828 0.2736437
-0.31701794 -0.030050734 0.23873892 0.04473986 0.504631 0.42354637 0.29003617 0.44158295
0.037271414 0.041798536 0.40797773 0.44509518 -0.39315236 -0.2609055 -0.2704958 0.15852644
-0.14067058 0.24667661 -0.30587986 -0.30489928 -0.08789454 -0.11209487 0.12096976 0.5960536
0.38182226 0.6072804 0.37224165 0.3699919 0.4752285 -0.1336397 -0.39422697 0.13918164
0.42743364 -0.17254394 0.38193145 0.47008276 0.19875097 0.38829857 0.2886901 -0.37870887
-0.27106065 -0.24923196 0.25961757 -0.30847055 -0.39445192 -0.17343971 -0.32110327 0.093424566
0.21043842 0.60505915 0.28377548 0.41296846 0.22428396 0.5516891 0.21932973 0.3746947
0.18622291 0.2922651 0.5033778 0.25019252 0.3343073 0.3048991 0.26805627 0.42488685
0.51108515 0.06544785 -0.30466118 -0.038415425 -0.120210834 -0.07221188 0.15730032 -0.14045434
0.112320125 0.17394881 0.052444555 0.2715852 0.28414983 -0.28632078 0.24619001 0.35311967
0.26312533 0.1567965 -0.094880275 0.2541311 0.17552671 0.27927306 0.1875799 0.18040916
-0.30999097 -0.09859607 -0.11399146 -0.32345867 -0.16996998 -0.19730008 0.10044644 0.47806364
0.23306845 0.35466102 0.47221893 0.4073934 0.34547168 0.2935626 -0.291234 0.44705653
0.40234768 0.0046118726 0.31504595 0.4468275 0.121226124 0.42178366 0.06569559 -0.14933869
-0.36342955 -0.3081218 -0.32399076 -0.16345811 0.08604814 -0.0003223334 0.16157007 -0.14403681
00000000: 884b e23d f28a 01be 9059 8dbc 0437 513e
00000010: 271f c1bd 99aa 9d3e 6b09 febc e482 b03c
00000020: d8f7 aebd 6a3e a6bd 8d00 b9be 303d 38be
00000030: acbf 10be acbb e4bc d851 133e 6e9f 123e
00000040: 20ae 18be 59e5 34be 7337 48be aabf 64be
00000050: a4b5 b4be 9c84 123d cca8 76be 071b 8c3e
00000060: 2d50 a2be f52c f6bc fa77 743e 2541 373d
00000070: 7f2f 013f 12db d83e 9f7f 943e 2917 e23e
00000080: e9a9 183d f134 2b3d 75e2 d03e 84e3 e33e
00000090: 444b c9be 6895 85be 6d7e 8abe c154 223e
000000a0: f30b 10be cb98 7c3e 499c 9cbe c21b 9cbe
000000b0: 0d02 b4bd ff91 e5bd febe f73d f896 183f
000000c0: 357e c33e ba76 1b3f 7596 be3e 946f bd3e
000000d0: 2651 f33e d8d8 08be 1ed8 c9be a285 0e3e
000000e0: 95d8 da3e 5caf 30be 858c c33e b0ae f03e
000000f0: 6085 4b3e 12cf c63e 30cf 933e 21e6 c1be
00000100: 76c8 8abe aa36 7fbe 98ec 843e daef 9dbe
00000110: 9af5 c9be 2e9a 31be a667 a4be 6155 bf3d
00000120: 2b7d 573e 28e5 1a3f 054b 913e 9a70 d33e
00000130: b2aa 653e 7f3b 0d3f f997 603e fcd7 bf3e
00000140: 38b1 3e3e c5a3 953e 5edd 003f 3c19 803e
00000150: 542a ab3e bc1b 9c3e ac3e 893e c58a d93e
00000160: 7ad6 023f 8609 863d 8dfc 9bbe 7e59 1dbd
00000170: 1931 f6bd d2e3 93bd 5613 213e 43d3 0fbe
00000180: 1808 e63d a31f 323e 1ad0 563d 370d 8b3e
00000190: 167c 913e a398 92be 3c19 7c3e 1acc b43e
000001a0: 5db8 863e 438f 203e 9750 c2bd 791d 823e
000001b0: 46bd 333e e1fc 8e3e f214 403e 2ebd 383e
000001c0: 23b7 9ebe bdec c9bd 5b74 e9bd 609c a5be
000001d0: 9c0c 2ebe 0809 4abe ddb6 cd3d c2c4 f43e
000001e0: 7fa9 6e3e 2196 b53e aec6 f13e de95 d03e
000001f0: aae1 b03e d64d 963e 9f1c 95be 98e4 e43e
00000200: 8400 ce3e 311f 973b b44d a13e 93c6 e43e
00000210: 6745 f83d 07f4 d73e 698b 863d 3eec 18be
00000220: 7013 babe 24c2 9dbe 1ee2 a5be 9061 27be
00000230: 023a b03d dbfe a8b9 a072 253e 637e 13be

encoder.0.bias f4 [16]
-0.25970516 0.15651575 0.015768792 -0.03581237 0.065818064 -0.006768457 -0.14664045 -0.012638995
-0.049262453 -0.19960368 0.38978833 0.0836459 0.13875419 -0.062139258 -0.20463952 0.0613611
00000000: 13f8 84be aa45 203e 8e2d 813c feaf 12bd
00000010: 9fcb 863d efc9 ddbb ea28 16be ca13 4fbc
00000020: 6dc7 49bd e864 4cbe 5692 c73e 8b4e ab3d
00000030: 9415 0e3e bc85 7ebd 068d 51be c755 7b3d

encoder.2.weight f4 [32, 16, 3, 3]
0.061309375 -0.074209556 -0.071049154 -0.08307301 0.052418318 0.038103588 -0.042842 -0.066294506
0.061238047 0.13171512 0.03842178 0.046880905 5.603678e-05 0.0070859743 0.02628231 0.013129784
0.047373 0.09984403 -0.011606884 0.10486359 0.10722349 0.12698509 0.07514171 -0.020353135
0.11306656 -0.009062163 0.122040465 0.08566732 -0.062314622 0.027873551 0.019741358 -0.24903248
-0.124341875 0.04776982 -0.09131682 -0.10395174 0.010199215 0.09365786 -0.0015295869 0.112865865
0.0646363 0.12783754 0.13430789 0.03882556 0.049761537 0.14550303 0.027103594 0.03965454
0.103899084 -0.1405339 -0.15634169 0.004081979 -0.15071411 -0.1771443 0.105518706 0.0022736613
-0.09877454 -0.0103884665 -0.09565437 -0.13604714 0.094214074 -0.051241066 -0.028585931 0.03354595
0.0486055 0.114248626 -0.029950835 -0.0017590459 0.13481578 0.12351343 0.125449 0.04421161
0.018122455 0.052121636 -0.026056154 -0.07797128 -0.25753662 -0.20801903 -0.0104222465 -0.19101323
-0.26811704 0.016080799 -0.05767932 0.060613655 0.047807798 -0.18783261 -0.16722521 0.017023692
-0.056321476 -0.06903771 0.099800505 0.10133831 0.083719686 -0.004581418 0.0462773 -0.010731925
0.13216165 0.08622049 0.040891986 0.07906469 -0.020043153 0.12704009 0.11738915 -0.10507841
0.029653128 0.07115824 0.018016346 -0.009217727 0.15511124 0.1976475 0.07580112 0.076682255
0.22172008 0.20001279 0.080836855 0.15240477 0.07381607 0.0778842 -0.0009545669 0.051481474
-0.07337558 -0.20458959 -0.16365537 0.0061862804 -0.057095293 -0.10328786 0.020967936 0.012875448
-0.055551328 -0.05474015 -0.09119407 -0.15497808 0.03872597 -0.1640836 -0.14311138 0.08368805
0.04700005 0.03165727 0.04932066 0.14490321 0.09168596 0.17438783 0.30122894 0.22956112
0.06839474 -0.030731773 -0.048229724 -0.024720548 0.05392372 0.009608505 0.034472145 -0.03584215
-0.011755494 0.109375015 -0.009336016 -0.0066036666 0.011164172 0.06346164 0.022859816 0.029182972
0.06628529 0.0022564298 -0.012262409 0.03976399 0.09436156 0.07608147 0.023297045 0.046919663
-0.004535804 0.048175387 0.13978973 -0.14472264 -0.13275199 0.014784794 -0.113373555 -0.24287814
-0.0720845 0.050631486 -0.06300921 -0.03381556 -0.019293116 0.03778873 0.016859723 0.13049285
-0.016654257 -0.0022149188 0.023900503 0.057236504 0.12252483 -0.07320178 -0.14393105 -0.05130148
-0.089471936 -0.19191895 -0.05955367 0.08720307 0.03383065 -0.028842447 -0.04501176 -0.034607425
-0.061482266 -0.020518588 -0.075521596 0.03641094 0.09464628 -0.09933995 0.079850346 0.04127669
0.070782006 0.05640064 0.13334991 0.1031965 -0.026651891 0.07834403 0.0726756 0.10523337
-0.14963555 -0.118807785 -0.065498345 -0.2142568 -0.21170816 -0.07531141 0.017491762 -0.050752062
0.01507246 0.028534388 -0.05445518 -0.046085645 -0.12622227 -0.15327023 -0.128623 0.11941606
-0.035902053 -0.116164915 0.1423247 0.09631236 0.003943495 0.03747956 0.08459774 0.1401992
0.14448416 0.06009451 0.08980854 -0.030304726 0.059407298 0.13305528 0.04226328 -0.022990089
0.065755226 0.13771442 0.029547833 -0.030639544 0.12961249 0.21779835 -0.02025401 0.18296848
00000000: 8a1f 7b3d 2efb 97bd 3882 91bd 2f22 aabd
00000010: 97b4 563d 8212 1c3d 187b 2fbd 6ac5 87bd
00000020: bfd4 7a3d 54e0 063e 2860 1d3d 3106 403d
00000030: 0909 6b38 7631 e83b 004e d73c 4e1e 573c
00000040: 310a 423d 077b cc3d cd2a 3ebc b9c2 d63d
00000050: fd97 db3d 6108 023e e6e3 993d 9ebb a6bc
00000060: 718f e73d 7779 14bc 5af0 f93d 5972 af3d
00000070: 9e3d 7fbd 1357 e43c a1b8 a13c 5f02 7fbe
00000080: f4a6 febd 49aa 433d 5004 bbbd a6e4 d4bd
00000090: 9c1a 273c b1cf bf3d 6b7c c8ba 3826 e73d
000000a0: 0960 843d d8e7 023e 0288 093e 8d07 1f3d
000000b0: c1d2 4b3d bffe 143e 5b08 de3c cd6c 223d
000000c0: 0bc9 d43d 1ee8 0fbe 0918 20be 1fc2 853b
000000d0: cd54 1abe 5165 35be 311a d83d b501 153b
000000e0: 4e4a cabd 6334 2abc 70e6 c3bd f14f 0bbe
000000f0: 4ff3 c03d 27e2 51bd 0b2d eabc 7a67 093d
00000100: 9016 473d 2ffb e93d 745b f5bc c98f e6ba
00000110: 260d 0a3e 9cf4 fc3d b475 003e 3c17 353d
00000120: 8b75 943c 7f7d 553d b773 d5bc 68af 9fbd
00000130: d7db 83be f102 55be 12c2 2abc f998 43be
00000140: a346 89be e1bb 833c 2741 6cbd 0646 783d
00000150: 1cd2 433d 3157 40be 163d 2bbe 4575 8b3c
00000160: 59b1 66bd a563 8dbd 3564 cc3d 768a cf3d
00000170: 3a75 ab3d b81f 96bb 448d 3d3d f5d4 2fbc
00000180: 6255 073e 5e94 b03d 5b7e 273d abec a13d
00000190: 8a31 a4bc cc16 023e b969 f03d 5933 d7bd
000001a0: 1eeb f23c 69bb 913d 0497 933c f305 17bc
000001b0: 7bd5 1e3e 1b64 4a3e 9e3d 9b3d 960b 9d3d
000001c0: 970a 633e 27d0 4c3e cb8d a53d ff0f 1c3e
000001d0: e12c 973d c081 9f3d e63b 7aba 3dde 523d
000001e0: f045 96bd ef7f 51be 4695 27be 48b6 ca3b
000001f0: c1dc 69bd 9688 d3bd f3c4 ab3c 8bf3 523c
00000200: ca89 63bd 3537 60bd f5c3 babd 93b2 1ebe
00000210: 1f9f 1e3d 8805 28be ca8b 12be a464 ab3d
00000220: 2083 403d 0eab 013d 7604 4a3d 8261 143e
00000230: d9c5 bb3d b992 323e ae3a 9a3e 1212 6b3e
00000240: 8b12 8c3d 33c1 fbbc 888c 45bd bf82 cabc
00000250: 1edf 5c3d fe6c 1d3c aa32 0d3d 38cf 12bd
00000260: 1e9a 40bc 0200 e03d 17f6 18bc 9263 d8bb
00000270: eee9 363c 2df8 813d 8244 bb3c 2111 ef3c
00000280: 95c0 873d 9ce0 133b 45e8 48bc 91df 223d
00000290: a240 c13d 9ad0 9b3d 72d9 be3c d52e 403d
000002a0: 15a1 94bb 8e53 453d 0a25 0f3e 2c32 14be
000002b0: 23f0 07be ec3b 723c 6530 e8bd 0cb5 78be
000002c0: 0aa1 93bd f662 4f3d f90a 81bd 2f82 0abd
000002d0: 990c 9ebc 5bc8 1a3d 671d 8a3c eb9f 053e
000002e0: 826e 88bc 2c28 11bb fdca c33c d370 6a3d
000002f0: 4cee fa3d d1ea 95bd a962 13be 8021 52bd
00000300: 103d b7bd 6786 44be 8dee 73bd 8697 b23d
00000310: 0292 0a3d ff46 ecbc 405e 38bd 84c0 0dbd
00000320: d4d4 7bbd 9916 a8bc 11ab 9abd a323 153d
00000330: e9d5 c13d be72 cbbd 9488 a33d bf11 293d
00000340: 28f6 903d 5c04 673d e18c 083e b058 d33d
00000350: 1155 dabc d672 a03d f2d6 943d 9884 d73d
00000360: 103a 19be 7f51 f3bd ff23 86bd 2266 5bbe
00000370: 06ca 58be de3c 9abd e24a 8f3c 65e1 4fbd
00000380: 7bf2 763c f3c0 e93c 650c 5fbd 4dc4 3cbd
00000390: 6940 01be dff2 1cbe bfb5 03be 6890 f43d
000003a0: 080e 13bd dfe7 edbd 91bd 113e 6a3f c53d
000003b0: 6f38 813b 2b84 193d 9441 ad3d 6190 0f3e
000003c0: a8f3 133e a925 763d 8aed b73d 9e41 f8bc
000003d0: 1155 733d a53f 083e 431c 2d3d b655 bcbc
000003e0: adaa 863d 0205 0d3e 4c0e f23c c8ff fabc
000003f0: 23b9 043e 8806 5f3e bdeb a5bc 175c 3b3e

encoder.2.bias f4 [32]
0.00965214 0.0883815 0.12534335 0.05938578 0.110499136 0.06546057 0.13368897 0.06974551
0.08738747 -0.022439629 0.09257426 0.13562894 0.04420038 -0.0677041 0.08562121 0.043691043
0.018190524 -0.007909189 0.006771854 0.12981622 0.09264637 -0.0037257073 0.10312194 -0.06575315
-0.047357697 -0.06184 -0.011009083 0.0014053003 0.020213857 0.029394109 0.030297432 0.050445586
00000000: 0224 1e3c 5c01 b53d 025a 003e 813e 733d
00000010: 5f4d e23d 3110 863d c3e5 083e bcd6 8e3d
00000020: 34f8 b23d 50d3 b7bc 9397 bd3d 50e2 0a3e
00000030: 750b 353d 72a8 8abd 2c5a af3d 61f5 323d
00000040: 4b04 953c 8b95 01bc 6ee6 dd3b 8bee 043e
00000050: 61bd bd3d ff2a 74bb 9831 d33d 96a9 86bd
00000060: 25fa 41bd f14b 7dbd 715f 34bc 0e32 b83a
00000070: 8897 a53c eacb f03c 5232 f83c 08a0 4e3d

decoder.0.weight f4 [32, 16, 3, 3]
0.110232264 0.119127765 0.06876053 -0.017884817 0.023176199 -0.012624075 -0.025784686 0.04311987
0.05875503 0.023667613 0.02619673 0.030979224 0.048815772 -0.07788018 -0.05752536 0.042076062
0.04778207 0.024202177 -0.028791452 0.09284944 -0.022852084 0.025793007 0.05019904 0.07778298
0.06801593 0.04234881 -0.037220147 0.033876643 -0.027281819 -0.01498435 0.041551843 0.14053214
0.004941283 -0.01001016 0.0072358176 0.12643763 0.053169787 0.111914046 -0.021760073 0.112908654
0.07755399 -0.00739043 0.0033504872 0.14128038 0.061944004 -0.008787799 0.03613537 -0.03180094
-0.0043547433 0.09824536 0.102545016 0.052830555 0.03155653 0.019728439 -0.03739924 -0.07126728
-0.010347445 0.10299693 -0.03016304 -0.023770615 0.0762626 -0.07445931 -0.02399527 -0.025566196
-0.050283384 -0.0072187334 -0.08863727 -0.027276462 -0.018089578 0.055667184 -0.09645137 -0.04619932
0.08738528 0.1079073 0.007889936 0.0015873774 0.12533732 0.08368208 0.05626491 0.04899678
0.014704576 0.16974024 0.23479228 0.13234125 0.078311354 -0.04659856 -0.03976373 0.17375554
0.04913585 -0.04415633 0.067533135 -0.082783274 -0.01536027 -0.07428901 -0.09883156 0.021398908
-0.07380573 -0.09540791 -0.03338123 0.0009533626 0.06551298 0.022980943 0.08510094 0.031624764
0.13867754 0.048835587 0.113956705 -0.0011969472 0.023983201 0.025900371 0.02079775 0.04005978
0.13092136 0.028444754 0.039509624 0.022557499 -0.021862153 0.014210796 0.010245368 0.02297452
-0.01953734 0.13823648 0.11873383 0.043650176 0.09698233 0.028213322 -0.026155103 0.005478393
0.116353095 0.076908164 0.12635054 0.085480765 0.025244452 0.11935809 0.07497149 -0.0006962292
0.028548993 0.097510256 0.013889512 0.12805352 0.037467707 0.071795195 0.11240122 0.0043149726
0.096099116 -0.028183559 0.109569974 -0.030676087 -0.019548772 0.14137976 0.061595995 0.05036745
-0.03624406 0.030159978 0.04647912 -0.09689821 0.017853448 0.04510794 -0.014660355 -0.028792689
0.010173344 0.027049553 -0.0170465 0.107434005 0.09388933 -0.022835813 0.080888 0.10437642
0.0941699 -0.013933239 -0.009845402 -0.015809642 0.021041477 0.019856133 0.126732 0.1366678
0.0075159543 -0.030891014 0.065946065 0.09282266 0.12745565 0.1042752 0.08083594 0.07339244
0.15782684 0.111038685 0.03403488 0.088414855 0.034865513 0.07867424 -0.015119959 0.05164887
0.041409153 0.026535207 0.011424485 0.069711536 0.07937141 -0.00024018264 -0.05871524 0.006160891
0.07276551 -0.030927682 -0.04781066 -0.027951546 0.014023166 -0.05052021 0.031446125 -0.033868223
0.045846157 0.08778975 0.048347227 0.022006242 -0.010321084 0.060221016 -0.03359678 0.062841095
0.071870126 -0.007818081 0.035370536 0.034371622 0.25038725 0.025991276 0.022840021 0.021165201
0.050590724 0.06838151 -0.13795698 0.15698388 -0.013081452 0.048331074 0.03096574 0.18301797
-0.05730865 0.26435262 0.04208117 -0.012358768 0.053729363 -0.0007327788 0.04598396 0.017595083
0.06500845 -0.08351009 -0.009849781 0.06581187 0.13035752 0.057679426 0.12944663 0.11701982
0.018592214 0.06585832 0.14054926 0.033709288 0.013068688 -0.03675364 -0.052796375 0.07141063
00000000: 74c1 e13d 42f9 f33d 52d2 8c3d 2e83 92bc
00000010: 03dc bd3c 35d5 4ebc 683a d3bc 769e 303d
00000020: 1da9 703d 95e2 c13c 869a d63c 24c8 fd3c
00000030: 0cf3 473d a57f 9fbd b69f 6bbd f357 2c3d
00000040: 22b7 433d a543 c63c 0ddc ebbc d927 be3d
00000050: 4b34 bbbc db4b d33c 829d 4d3d af4c 9f3d
00000060: f04b 8b3d f275 2d3d 2774 18bd 3cc2 0a3d
00000070: 1f7e dfbc eb80 75bc 4432 2a3d a8e7 0f3e
00000080: 7cea a13b a701 24bc 701a ed3b de78 013e
00000090: 90c8 593d 3133 e53d 2e42 b2bc a73c e73d
000000a0: a0d4 9e3d 6c2b f2bb d993 5b3b ceab 103e
000000b0: ffb8 7d3d b3fa 0fbc af02 143d b441 02bd
000000c0: 3cb2 8ebb dd34 c93d 1f03 d23d da64 583d
000000d0: 6c41 013d 899d a13c f22f 19bd 94f4 91bd
000000e0: 5488 29bc 0ef0 d23d 7b18 f7bc 98ba c2bc
000000f0: 912f 9c3d 1f7e 98bd ba91 c4bc 3370 d1bc
00000100: f3f5 4dbd 208b ecbb 7587 b5bd e372 dfbc
00000110: 9830 94bc 4603 643d 4c88 c5bd 803b 3dbd
00000120: 0ef7 b23d 81fe dc3d ca44 013c 8c0f d03a
00000130: 6d58 003e 8361 ab3d 0976 663d d9b0 483d
00000140: 76eb 703c 63d0 2d3e 636d 703e 7784 073e
00000150: b461 a03d 22de 3ebd 4bdf 22bd f9ec 313e
00000160: ac42 493d 45dd 34bd d04e 8a3d 478a a9bd
00000170: a4a9 7bbc d624 98bd 3368 cabd c34c af3c
00000180: 7527 97bd 3965 c3bd c2ba 08bd 15eb 793a
00000190: ab2b 863d 8842 bc3c 6749 ae3d f888 013d
000001a0: 7c01 0e3e d307 483d 2262 e93d e2e2 9cba
000001b0: 6b78 c43c 042d d43c 0b60 aa3c b915 243d
000001c0: 4010 063e f904 e93c d8d4 213d 81ca b83c
000001d0: 4218 b3bc 66d4 683c 30dc 273c 1035 bc3c
000001e0: c60c a0bc dd8d 0d3e b92a f33d 87ca 323d
000001f0: ac9e c63d a01f e73c 3a43 d6bc 1784 b33b
00000200: 884a ee3d 0782 9d3d 0962 013e 8a10 af3d
00000210: 74cd ce3c 0472 f43d a78a 993d 2783 36ba
00000220: 94df e93c 75b3 c73d d690 633c 7620 033e
00000230: bd77 193d 5c09 933d 9c32 e63d 9d64 8d3b
00000240: 9dcf c43d 35e1 e6bc 3966 e03d 6b4c fbbc
00000250: bf24 a0bc dbc5 103e 154c 7c3d 194e 4e3d
00000260: a774 14bd 0f12 f73c e460 3e3d 9272 c6bd
00000270: 6541 923c 1ac3 383d fc31 70bc a5de ebbc
00000280: 19ae 263c 0697 dd3c 1aa5 8bbc 5c06 dc3d
00000290: 0d49 c03d 2c12 bbbc 9ca8 a53d 4ec3 d53d
000002a0: 26dc c03d 3d48 64bc 9c4e 21bc 3983 81bc
000002b0: 2d5f ac3c 54a9 a23c 09c6 013e a5f2 0b3e
000002c0: 6548 f63b 270f fdbc bb0e 873d cf19 be3d
000002d0: bc83 023e 3c8e d53d 508d a53d c74e 963d
000002e0: 5c9d 213e 4068 e33d 2968 0b3d d912 b53d
000002f0: 24cf 0e3d f61f a13d b4b9 77bc c48d 533d
00000300: a59c 293d 5d60 d93c c32d 3b3c ecc4 8e3d
00000310: 7a8d a23d 89d9 7bb9 647f 70bd 4de1 c93b
00000320: 1506 953d 0d5c fdbc 1cd5 43bd a4fa e4bc
00000330: 6cc1 653c 48ee 4ebd a7cd 003d 68b9 0abd
00000340: 2ec9 3b3d 1dcb b33d be07 463d 6f46 b43c
00000350: c419 29bc 50aa 763d c79c 09bd d5b2 803d
00000360: a530 933d 6917 00bc b2e0 103d 42c9 0c3d
00000370: c232 803e a8eb d43c ff1a bb3c a562 ad3c
00000380: 3838 4f3d 9b0b 8c3d 9844 0dbe 62c0 203e
00000390: 9653 56bc cef6 453d ddab fd3c 1069 3b3e
000003a0: 7abc 6abd 3a59 873e 4e5d 2c3d 6e7c 4abc
000003b0: 5213 5c3d f417 40ba ad59 3c3d 9023 903c
000003c0: 2623 853d 5707 abbd fa60 21bc 60c8 863d
000003d0: 717c 053e 4341 6c3d a88d 043e 16a8 ef3d
000003e0: b34e 983c bae0 863d 25ec 0f3e c012 0a3d
000003f0: 0d1e 563c fc8a 16bd 0341 58bd bd3f 923d

decoder.0.bias f4 [16]
-0.018826764 0.016059468 0.04637738 0.11916857 0.07102113 0.059468836 0.012096866 0.054773927
0.024042677 -0.05620452 0.057725515 0.06862166 -0.0176545 0.08865191 0.02939436 0.054204904
00000000: 963a 9abc 258f 833c 35f6 3d3d a70e f43d
00000010: 8773 913d 9895 733d ef31 463c a05a 603d
00000020: 26f5 c43c b636 66bd 9771 6c3d 8389 8c3d
00000030: 2ca0 90bc 228f b53d 71cc f03c f605 5e3d

decoder.2.weight f4 [16, 1, 3, 3]
0.0044384236 -0.24076103 -0.35873437 -0.36120453 0.28526443 0.24104762 -0.057005443 0.041813284
0.22575799 0.24537529 0.20997751 -0.30282778 0.2039362 -0.020112617 0.2538032 -0.26417133
0.24581935 -0.09572722 0.10930129 0.25706816 -0.34919095 -0.21949725 -0.028618217 -0.3444696
0.020655936 -0.34268108 0.06623907 -0.042363387 0.0914286 0.006729838 0.08004041 -0.2850599
-0.36414516 0.08650236 -0.17236766 -0.24891837 -0.37021825 -0.06371513 0.19230267 -0.32386184
-0.35363892 0.016742067 -0.22245905 -0.24931562 -0.06842212 -0.28401706 -0.03531785 0.18169399
-0.22805458 0.022637295 -0.2249704 -0.12419963 -0.1179643 0.2607747 -0.21001315 0.24774332
-0.27750975 -0.041490007 -0.008331187 -0.045330882 -0.04614123 -0.15591533 0.0012503051 -0.14381899
0.27800882 -0.2767488 -0.109583326 0.24778958 0.17577507 -0.28568712 -0.20220932 0.18139158
-0.14964135 0.005164636 -0.06295934 -0.3735879 -0.34489578 -0.015399207 0.27310553 -0.30463395
0.10282766 0.28650215 0.2593591 0.39977816 0.3440951 0.28154543 0.21329808 0.36824605
0.27434182 0.27797756 0.31061062 0.016819732 -0.059781298 0.025511716 0.09055165 0.09351015
-0.04115035 -0.13417058 0.0066476157 0.07527736 -0.34819853 -0.13170594 -0.072063155 -0.20149176
-0.25010788 -0.16953863 -0.098740555 -0.29749414 0.21768486 0.18841703 -0.2690016 -0.025556544
0.26680264 -0.32385957 -0.12716737 -0.37745 0.043642595 -0.345375 -0.20900275 -0.09844819
0.13712351 -0.2388167 0.01238202 0.11360704 -0.030488657 -0.35429224 0.17172936 -0.35907263
-0.118022814 0.14567558 -0.24734023 -0.30165198 -0.18947633 0.1988285 -0.25746724 -0.2790912
0.16946869 -0.1504283 -0.15312031 -0.20511542 -0.029235909 -0.25156203 -0.27207908 -0.0343223
00000000: 3270 913b 0f8a 76be 08ac b7be cdef b8be
00000010: 2e0e 923e 30d5 763e 8a7e 69bd 6844 2b3d
00000020: 1a2d 673e a943 7b3e 5804 573e 3e0c 9bbe
00000030: a7d4 503e 37c3 a4bc 7ef2 813e 7741 87be
00000040: 11b8 7b3e a20c c4bd 5bd9 df3d 709e 833e
00000050: 28c9 b2be e3c3 60be c070 eabc 525e b0be
00000060: a336 a93c e573 afbe 59a8 873d 3b85 2dbd
00000070: eb3e bb3d f985 dc3b 3aec a33d 5ff3 91be
00000080: 3c71 babe 2628 b13d 2681 30be 75e4 7ebe
00000090: 3f8d bdbe 147d 82bd feea 443e 38d1 a5be
000000a0: 2910 b5be a926 893c 4ecc 63be 984c 7fbe
000000b0: e520 8cbd af6a 91be 73a9 10bd fd0d 3a3e
000000c0: 2487 69be d971 b93c a45e 66be 605c febd
000000d0: 4497 f1bd 4384 853e b00d 57be 6db0 7d3e
000000e0: c215 8ebe 6df1 29bd 887f 08bc e0ac 39bd
000000f0: 96fe 3cbd 45a8 1fbe 47e1 a33a 4945 13be
00000100: 2c57 8e3e 05b2 8dbe 396d e0bd 8dbc 7d3e
00000110: 61fe 333e 9545 92be f60f 4fbe b7be 393e
00000120: 953b 19be 1b3c a93b d4f0 80bd ea46 bfbe
00000130: 2e96 b0be f54c 7cbc 7dd4 8b3e fbf8 9bbe
00000140: 4f97 d23d 69b0 923e b7ca 843e b9af cc3e
00000150: 3c2d b03e b926 903e d06a 5a3e bf8a bc3e
00000160: 8876 8c3e 1353 8e3e 5b08 9f3e 89c9 893c
00000170: 3cdd 74bd f2fd d03c 2573 b93d 4082 bf3d
00000180: 458d 28bd 0364 09be 3ed4 d93b 042b 9a3d
00000190: 1447 b2be ecdd 06be d995 93bd db53 4ebe
000001a0: 240e 80be 899b 2dbe 7d38 cabd 2751 98be
000001b0: c8e8 5e3e 65f0 403e 94ba 89be f55b d1bc
000001c0: 5b9a 883e ecd0 a5be 2a38 02be 2041 c1be
000001d0: 94c2 323d fed4 b0be d104 56be 349f c9bd
000001e0: 1b6a 0c3e 5d8c 74be f5dd 4a3c cfaa e83d
000001f0: 59c3 f9bc cb65 b5be d2d9 2f3e 5ed8 b7be
00000200: f2b5 f1bd fb2b 153e c246 7dbe 2172 9abe
00000210: 1506 42be b399 4b3e bfd2 83be 0be5 8ebe
00000220: 3389 2d3e e009 1abe 92cb 1cbe c709 52be
00000230: 2580 efbc bdcc 80be f34d 8bbe 8a95 0cbd
