models/tvs_raider_exhaust_autoencoder.pth (torch, 42004 bytes, 7 tensors)

encoder.0.weight f4 [16, 1, 3, 3]
000000 ca 65 36 3e eb b3 80 39 d1 3b 25 bd f6 11 b3 3b
       0.17812267 0.00024548112 -0.04034025 0.0054647876
000010 23 eb f2 bd fd de be 3d 50 8e a4 be 01 29 cd bd
       -0.11861255 0.093198754 -0.32139826 -0.100175865
000020 23 d4 cf bc 40 ed dc bd 8d 0a 58 3e 06 e9 0a be
       -0.02536971 -0.10787439 0.21097775 -0.13565454
000030 25 ea 81 3b ac 9d e6 3c 7e b7 ad be ac 97 63 bd
       0.00396468 0.028151356 -0.33929056 -0.055564567
000040 cd 24 75 be cd 5d a4 be c0 3d ba 3d 5c a2 6d 3e
       -0.2393982 -0.32102814 0.09093809 0.23206466
000050 0c fe 26 be a9 d9 ab be 7c 97 c1 be 49 60 20 3e
       -0.16307849 -0.335645 -0.37810886 0.1566173
000060 8e d5 66 be 9d 84 a5 bd a0 c9 6d be 04 66 b7 3c
       -0.22542402 -0.080819346 -0.23221445 0.022387512
000070 c0 4a f1 bd fe 62 bf be 47 85 4c be f1 9d ab bd
       -0.117818356 -0.37380213 -0.19972716 -0.08379734
000080 bc 7f f4 bd 45 88 74 3d f8 98 7d be 38 e7 96 3c
       -0.11938426 0.05970027 -0.24765384 0.0184208
000090 39 c7 4e be c5 5f 01 3e 87 23 99 be 0d e4 ca bc
       -0.20193185 0.1263419 -0.29909918 -0.024766946
0000a0 6c 79 58 be 18 7f 6b 3e 96 4e c3 bd 6c 70 47 3e
       -0.21140069 0.22997701 -0.095364735 0.1947648
0000b0 a4 08 9b 3e 06 3f 01 be 18 87 ad bd 8e 01 62 be
       0.3028003 -0.12621698 -0.08473033 -0.22070906
0000c0 ef ca f8 bd d9 fd 6f bd a6 3a b6 bd 4e cd 6d 3e
       -0.121480815 -0.058591697 -0.08897905 0.23222849
0000d0 03 ec 9e be 33 e6 84 3e 01 ee c5 be ae 15 72 bd
       -0.31039438 0.25956878 -0.38658145 -0.059102707
0000e0 3f bb a6 3e 85 f6 c0 be 2b 34 a3 3d e6 0c c5 3e
       0.32564732 -0.3768808 0.079689346 0.38486403
0000f0 bb 92 ed be 59 ec a8 3e 18 58 00 3f d7 47 62 3e
       -0.4640101 0.3299282 0.5013442 0.22097717
000100 64 61 51 be fd 06 19 3e 52 64 2f 3e d3 58 c2 3e
       -0.20447308 0.14944072 0.17128113 0.37958393
000110 b0 b3 bb 3e 7a 89 c4 3d b6 d1 bd 3e 90 70 f5 3b
       0.36660528 0.09596534 0.3707406 0.007490225
000120 07 65 11 bd 39 69 73 be 5c c5 ab be dc b5 5b 3a
       -0.035496738 -0.23770608 -0.3354901 0.0008381286
000130 a6 b0 25 be 31 af 0a be 39 a2 d1 bd da aa 43 bd
       -0.16180667 -0.13543393 -0.1023602 -0.04777036
000140 e1 e4 22 be 55 0f 26 3e 90 0a 6c bb b0 8d 8d 3d
       -0.15907623 0.16216786 -0.0036017038 0.0691179
000150 82 53 5f be d9 75 42 be 1d b6 33 be df 46 40 be
       -0.218092 -0.18990268 -0.1754994 -0.18777035
000160 61 81 bf bd 64 4c 62 bd 7c c7 31 3e 2e 96 b7 bd
       -0.09350849 -0.055248633 0.17361253 -0.089641914
000170 c6 19 2d 3e 1e c4 31 3e 39 37 ae be 52 88 96 be
       0.16904363 0.17359969 -0.34026507 -0.2940088
000180 aa d3 75 3d ef a4 56 be 1c 36 0d be 83 aa 13 bf
       0.06001631 -0.20961355 -0.13790172 -0.57682055
000190 e1 77 42 be 32 2a 0a bf 4f dc 01 be fd ca 08 bf
       -0.18991043 -0.53970635 -0.12681697 -0.53434736
0001a0 5d 83 8d be 7a 3c 49 3e cc 78 0c 3f 60 b9 9e 3e
       -0.27639285 0.19651976 0.5487182 0.31000805
0001b0 a8 7a 0b 3e 3d 3d ad 3d e0 c6 bf be 44 13 23 3d
       0.13621008 0.08458946 -0.37456417 0.039813295
0001c0 d8 08 a4 be b6 05 82 be ed 49 ba bd e1 3d 92 be
       -0.32037997 -0.25394982 -0.090961315 -0.28562835
0001d0 2b cb 9d bd 25 8d 79 be 44 1b 13 3e eb ff 96 3c
       -0.07704767 -0.24370249 0.1436587 0.018432578
0001e0 fa 9b de bd 1b 82 52 3e 43 b0 9e 3d 10 da d4 be
       -0.10869594 0.20557444 0.07748463 -0.41572618
0001f0 ad ec 44 be 85 eb c2 be de 6f 06 3e 20 4f 9e 3e
       -0.1923091 -0.38070312 0.13128611 0.30919743
000200 a1 77 66 be 7d 36 df 3e 96 17 7e 3e 01 3f 67 3d
       -0.22506572 0.4359626 0.24813685 0.05645657
000210 09 df c2 3e b6 8c aa 3d cd ce d6 3d 47 85 bc 3d
       0.38060787 0.0832762 0.10488663 0.09205108
000220 0d c6 b0 bd 0d 25 3b be cc 79 91 bd 6f 15 09 bd
       -0.08631525 -0.18275853 -0.07103309 -0.033467706
000230 87 c2 24 be ec 30 03 3e dd 95 80 bd 57 aa 45 be
       -0.16089831 0.12811631 -0.06278584 -0.1930326

encoder.0.bias f4 [16]
000000 48 38 87 3e 08 32 a2 bd 21 ce ab 3d e7 21 cd 3e
       0.26410127 -0.07919699 0.08388925 0.40064928
000010 b6 c2 49 3e 94 22 fa 3d 10 a4 21 bd b3 12 be 3d
       0.19703183 0.122136265 -0.039463103 0.0928091
000020 05 d7 f7 bc 7b a7 8c 3d b7 a5 b2 3e 2a 84 dc 3c
       -0.030253896 0.06867882 0.34892055 0.02691849
000030 fa e7 60 3e b0 d4 32 be 18 51 a8 3d 3f 69 a5 3e
       0.21963492 -0.17463946 0.082185924 0.3230686

encoder.2.weight f4 [32, 16, 3, 3]
000000 c8 7e 0c ba 8b f9 ce bd 2d c1 15 3b 17 bc d9 bb
       -0.0005359468 -0.1010619 0.0022850737 -0.0066447365
000010 f6 51 64 3d d0 17 69 bd aa 94 a6 3c 67 2f 86 bc
       0.055742227 -0.056907475 0.02033456 -0.016380025
000020 f9 5d 78 bd 10 11 38 3c 33 bf 8c bd 8a 7f 58 3b
       -0.060636494 0.011234537 -0.06872406 0.0033035004
000030 13 fb 85 3d 87 4c 85 3d 4e 8c b1 3c cf 21 51 3d
       0.06542029 0.06508737 0.021673348 0.051057633
000040 f5 fb ab bd d2 ea 25 bd db d5 8f bd c4 a3 5c 3c
       -0.08397666 -0.040507145 -0.070232116 0.013466779
000050 24 e2 75 bc 32 55 71 3d 74 c8 38 3d 12 28 a6 bd
       -0.015007529 0.05891914 0.045113042 -0.081131116
000060 64 41 95 bc 75 5b c3 bd 5c 3f 80 3d a1 97 6a bd
       -0.018219657 -0.095389284 0.06262085 -0.05727351
000070 d4 e3 1b 3d 0b 34 b9 bd 7c 21 24 3d 96 91 a7 bc
       0.03805907 -0.090431295 0.040070996 -0.020455163
000080 fc 5b 4f 3c 61 c5 bf 3a ad 0c 5b 3d 7c ad 77 3d
       0.012656208 0.0014630967 0.053478885 0.060468182
000090 f7 28 6a 3d 71 db 83 bc b8 13 31 3d d0 9a 07 bd
       0.057167973 -0.016095849 0.043231696 -0.033106625
0000a0 0b b0 ca bd f8 f7 85 3d be 72 68 3d b4 86 7a 3d
       -0.09896859 0.06541437 0.05675005 0.06116362
0000b0 fd 4b 8a bd ca a4 bf bd 11 ec b4 bd 19 1a 81 3d
       -0.06752775 -0.09357603 -0.088340886 0.06303806
0000c0 dc 46 db ba ac 7d 8e bc 47 77 89 3b 53 f5 b1 bd
       -0.0016729492 -0.01739391 0.004195127 -0.0868937
0000d0 40 18 dd 3c 9a e9 ff bc 52 f8 96 bd 07 f1 27 3d
       0.026989102 -0.03123932 -0.07371582 0.041001346
0000e0 4e bb 84 3d 24 21 b0 bd 19 0b 2e 3c 13 80 0f bd
       0.06481038 -0.08600071 0.010622763 -0.03503425
0000f0 29 6a 42 3d ec 5e b6 bd 57 d0 f7 3c 40 8e da bb
       0.047464523 -0.08904824 0.030250711 -0.0066697896
000100 1f a8 fb bc ab cd 1f ba a7 89 a0 bd 85 71 b1 bb
       -0.030719815 -0.00060960156 -0.07838755 -0.005415144
000110 df 3e 77 bc 73 d2 18 bd 34 70 41 bd a4 95 84 bc
       -0.015090673 -0.037310075 -0.047226146 -0.016184635
000120 ac 0a 69 bd cc a6 88 bd 6f e6 6e 3d ff 8f fb 3c
       -0.056894943 -0.06672439 0.058325227 0.030708311
000130 d0 12 50 bd 4d af 9e 3c 5b 32 85 bd 38 f7 ff 3c
       -0.05079919 0.0193707 -0.06503745 0.031245813
000140 05 4d 01 3d 05 e5 66 3d 8a ca e2 bc 94 a6 e7 bc
       0.031567592 0.056370754 -0.027684469 -0.028277673
000150 ec 9b 16 bc eb 7f 93 3b 5d 85 f5 bb 9e 47 5d bd
       -0.009192448 0.004501333 -0.007492705 -0.054023378
000160 58 76 81 3c 83 c7 1f 3c 1d ba 9f bd af 1d b0 bc
       0.015803501 0.009752157 -0.0779917 -0.02149853
000170 b1 19 a7 bd cd ea 56 3d 2a 4a 7f bc 20 ce b1 bd
       -0.08159197 0.052470017 -0.015581647 -0.08681893
000180 f8 63 bc bd 47 a4 86 3d b3 c9 48 bd eb dc aa bd
       -0.09198755 0.06574302 -0.04902048 -0.08342918
000190 2f bc 18 3c 9e 79 95 bd 6b 3d a2 bc 5e 30 46 bd
       0.00932221 -0.07298587 -0.019804677 -0.04838597
0001a0 a3 e2 4d bb fa a3 c1 bd 20 9f ff 3b a5 ea 9c bd
       -0.0031415604 -0.09455104 0.0078009516 -0.076619424
0001b0 4e 81 68 bd 49 38 1d bb 05 95 05 3d c5 5c 17 bd
       -0.05676394 -0.0023989847 0.03261282 -0.036953706
0001c0 40 cd 16 3d b5 8e 23 3c 4b c0 bf bc 8b 64 0d bd
       0.036816835 0.0099827545 -0.023407122 -0.034519713
0001d0 71 ba a5 3c be 35 34 3d cf f3 9c bd 89 fa e9 bc
       0.020230504 0.043996565 -0.0766369 -0.028561847
0001e0 c1 51 f9 bc 95 72 b2 bd 8f a0 b3 bd 9d 6a 6c 3c
       -0.030434491 -0.08713261 -0.087708585 0.014429715
0001f0 e1 fd 88 3d 1c 2c 3a 3d e0 a1 6b bd d3 ec eb b9
       0.066890486 0.045452222 -0.057527423 -0.0004499914
000200 79 58 dc bb 98 ae 68 bd 0c 85 22 bd 9b bc 2f 3c
       -0.006724414 -0.05680713 -0.039677665 0.010726119
000210 89 6e c8 bd f6 a5 5c 3d e3 be 0f bc de cd 6d 3d
       -0.09786708 0.05386921 -0.008773538 0.05805766
000220 8d cc 83 3d e7 6b 69 3d dd 12 94 bc 7f 26 32 bd
       0.06435499 0.05698767 -0.018075401 -0.043493744
000230 bd 7e cb bc 7f cb 86 bd bf 1d ae 39 37 a1 3c bd
       -0.024840707 -0.065817825 0.0003321003 -0.046052184
000240 27 77 ac 3c 01 c3 fd 3d 1a 75 1a bc 49 a2 e6 3d
       0.02105291 0.1239071 -0.009427333 0.11261422
000250 91 a0 0d 3e d3 1d 24 bc fc 51 92 bb bb 4d 64 bd
       0.13830782 -0.010016876 -0.0044653397 -0.055738192
000260 55 d1 29 bc 25 89 2d bc 12 a5 b8 3d a6 5f 51 3b
       -0.01036485 -0.01059178 0.0901586 0.003194788
000270 4c 53 ff bb 99 cd 78 bb 0d e0 ae 3c 9e 0d 43 3d
       -0.007791912 -0.0037964343 0.02134707 0.04762041
000280 1b 1d 11 bd 9e 79 c4 3b 1f 22 c2 3c d8 b8 2e bc
       -0.035428148 0.005995943 0.02369791 -0.010664187
000290 f6 dd fb 3d c8 74 3d 3d 0e e4 07 3c 9b cb 9e 3b
       0.12298195 0.04625395 0.008294119 0.004846049
0002a0 81 de d5 bc d5 ab a1 3c 8e 94 a2 3d dc 6d 46 bc
       -0.026107075 0.019735256 0.07938491 -0.012111153
0002b0 3d 0a af 3d 6d d2 8c 3d b3 35 4d 3d 2a 70 2f bb
       0.08546875 0.06876073 0.05010004 -0.0026769736
0002c0 44 bd e2 bc 8a 26 f7 3d 39 a2 e7 3d 9b 33 f0 3d
       -0.02767814 0.120678976 0.113102384 0.11728593
0002d0 d5 38 9d 3d e1 76 89 bd 00 3d ab bc 86 ad aa bd
       0.076768555 -0.067121275 -0.02090311 -0.08333878
0002e0 50 f7 dc bd 7b e8 73 3c ac 35 0b 3e 90 3a f8 3d
       -0.107893586 0.014886971 0.13594693 0.12120545
0002f0 75 a2 35 3e cb 13 c7 3c 58 46 89 3d 5f 74 ff 3c
       0.17737754 0.02430143 0.0670287 0.03118342
000300 89 5f 18 bd f0 f2 30 3c 7c f1 2d 3d d9 18 0a bb
       -0.037200484 0.010800108 0.042466626 -0.002107194
000310 55 4b c5 3d 48 0c de 3d f2 3e 43 3e 00 fc e7 b5
       0.09633509 0.10842186 0.1906698 -1.7284183e-06
000320 03 42 38 bd 77 0c 80 be 08 2c 65 be 62 1a 28 3d
       -0.04498483 -0.2500951 -0.22380078 0.041040786
000330 ed db 53 3d 34 74 a3 3d 78 f7 74 3e 19 0e 9e bd
       0.05172341 0.07981148 0.23922527 -0.07717533
000340 9e 11 9d 3c 64 67 47 bc c3 8c 1f be ed 25 21 be
       0.01917344 -0.012170646 -0.1558104 -0.15737124
000350 d8 46 4c be 8e e7 95 bd 4a 3c 01 bd 31 00 e2 3a
       -0.199489 -0.07319556 -0.031551637 0.0017242489
000360 8c 2c cc 3d c1 9b aa 3b 95 de b1 3d c0 65 ce 3c
       0.09969434 0.0052065556 0.08685032 0.025195003
000370 4f b1 c8 3c a2 65 01 bc c3 80 b1 bc 99 0e 55 3a
       0.02449861 -0.007897766 -0.021667844 0.00081274804
000380 7c 28 b8 3c 77 fc ab 3d 80 e5 c8 3d 44 22 f1 3d
       0.022480242 0.08397763 0.09809399 0.11774114
000390 92 b2 01 3c da b1 cd 3d 04 f1 d6 3d 3e 84 a3 3d
       0.00791611 0.10043688 0.10495189 0.079842076
0003a0 09 af 45 3d 9e 5b 1f bd c3 85 e5 3c d1 30 bd bc
       0.04826263 -0.038905732 0.028017884 -0.023094567
0003b0 6f 73 8b 3b 51 4d a4 3d c8 9e ba 3d 12 d8 3a 3d
       0.004255704 0.080225594 0.09112316 0.045616217
0003c0 f7 93 e9 bb ae 89 a4 3d a9 e1 02 3d 91 cc 12 3d
       -0.0071282345 0.08034073 0.031953488 0.03583962
0003d0 21 f8 09 3e 17 53 48 be 32 3c 27 be 86 d9 c3 be
       0.1347356 -0.19562946 -0.16331556 -0.38251895
0003e0 8f 4c 07 3e ac 5f 04 3f 66 81 f2 3e 82 8c b3 3e
       0.13212799 0.51708484 0.47364348 0.35068136
0003f0 b0 21 54 bc 8c d5 7d 3d c9 f8 f1 3d 74 e9 00 3e
       -0.012947485 0.061971232 0.1181503 0.12589055

encoder.2.bias f4 [32]
000000 58 9c 63 bc 46 46 1b bc 35 6e 8f 3d 41 6a df 3a
       -0.013892256 -0.009477204 0.07003442 0.0017045216
000010 62 82 52 3d 6c c5 30 bc 81 e7 c6 3d 55 75 9f 3d
       0.051393874 -0.010789257 0.097121246 0.07786051
000020 65 77 76 3d 0e b2 c3 3d e7 1f 1e bd 77 10 57 3d
       0.060172457 0.095554456 -0.038604643 0.052505936
000030 1b b8 45 3b 9e ae 68 3d 4a cf d0 3d 16 4d c0 bc
       0.003016955 0.056807153 0.10195787 -0.023474257
000040 c3 90 90 ba 65 50 b9 bc 07 78 18 3d a6 b6 a0 3d
       -0.001102947 -0.022621343 0.037223842 0.078473374
000050 20 9e c2 3d 80 0c 41 3e 83 32 0d bd 8a 7b b9 3d
       0.09502816 0.18852425 -0.034472 0.09056766
000060 95 44 8f 3c 9d 2b 9c 3d 72 50 11 3c 25 2b c4 3c
       0.017488757 0.07625506 0.008869277 0.023946354
000070 c7 58 61 3d a9 dd ce 3d c9 ae bc 3d 09 63 07 3d
       0.055016305 0.10100872 0.09213025 0.03305343

decoder.0.weight f4 [32, 16, 3, 3]
000000 15 1d 62 bd dc 59 c8 3d 2d 69 b7 3d 68 49 7c 3d
       -0.055203516 0.09782764 0.089556076 0.061593443
000010 fe 5c 93 bc a8 39 eb bb f0 41 cb bc 9b a8 01 bb
       -0.017988678 -0.007178504 -0.024811715 -0.0019784335
000020 16 e3 14 bd 57 88 72 bd a3 70 60 3d 06 34 7e 3d
       -0.03634938 -0.059212055 0.05479492 0.062061332
000030 55 dc c7 bc 77 b6 86 bd d1 31 83 3c 9a 5d f4 3c
       -0.024397055 -0.06577771 0.016014965 0.029829789
000040 5a bb 30 bd 9b 5f 51 3d b8 68 8b 3d e7 dc 97 bd
       -0.043147422 0.051116567 0.06807083 -0.07415181
000050 67 2a 36 bd 0a 9f bc bd 7f b8 f7 bc a2 75 72 bd
       -0.04447403 -0.09210022 -0.030239342 -0.059194215
000060 2b a6 80 3d 8e 6a aa bd 27 f3 b9 bd d1 68 cb 3d
       0.06281694 -0.08321105 -0.09079581 0.099321015
000070 9b b4 64 bd 80 da c7 bc fd 75 ae 3c 00 99 a5 3d
       -0.0558363 -0.024396181 0.021296496 0.08085823
000080 95 48 28 bd d9 47 09 3d 29 29 7f 3d 42 b7 c6 bc
       -0.041084845 0.033515785 0.062295113 -0.024257306
000090 d7 61 a6 bc 5b c7 03 3c f5 21 36 bc 6d e2 54 bc
       -0.020310326 0.0080431355 -0.011116494 -0.012993437
0000a0 af c7 7b 3d 4c 23 84 bc 15 68 64 bd e2 ad 75 bd
       0.06146973 -0.016130112 -0.055763323 -0.05998028
0000b0 0d e7 fc bc 93 b8 bb 3b 74 06 05 3d 01 f3 79 3d
       -0.030871892 0.00572879 0.032476857 0.061022762
0000c0 89 58 37 3d 1a 1a 63 3d 17 4d 5d 3d 27 58 c5 bc
       0.044762168 0.055444814 0.054028597 -0.024089886
0000d0 56 f9 b0 bd 26 69 35 3c 6d 7e 81 bc f0 9d 58 bd
       -0.08641307 0.011072433 -0.015807355 -0.052884996
0000e0 2e 53 8e bd 1a 62 4d 3d 7a e5 51 bd ed f7 59 3d
       -0.06949459 0.050142385 -0.051244237 0.053214956
0000f0 90 a6 09 3d 33 9f 26 3d 02 7f 46 bd df 85 79 bd
       0.033606112 0.040679168 -0.048460968 -0.060918685
000100 29 de 32 bc f7 65 a2 bd 60 0b af 3d 2f 9a 99 bc
       -0.010917225 -0.079296045 0.085470915 -0.018750278
000110 6a ce 57 3d 13 c2 39 bc 4c 8a 95 bd fb 9b 6b bd
       0.052687086 -0.011337775 -0.07301769 -0.0575218
000120 2a 55 90 3d 7d bc 61 3d 6f 06 8b 3d 6b 32 56 3c
       0.07047494 0.055111397 0.067883365 0.013073544
000130 5a 6b b1 3d 1b 42 7f bd 7e e9 b3 3d a1 bf 80 bd
       0.08663054 -0.062318902 0.087847695 -0.0628655
000140 44 1b d2 3d cf 52 e2 3c 76 8c cc 3c d4 d8 68 bd
       0.10259107 0.027627377 0.02496932 -0.05684741
000150 59 19 11 bd 15 6f 9b 3c ae 17 a5 bd 20 3b 82 bc
       -0.035424564 0.018973866 -0.08061157 -0.015897334
000160 a1 85 30 3d 3b 1c c3 bc 71 1c 2a bc 35 a3 1c 3d
       0.04309619 -0.023817172 -0.0103827575 0.038241584
000170 87 79 a1 bc 89 6a a1 3d 82 0b 8a bb a6 5a 5e bc
       -0.019711269 0.07881648 -0.0042127976 -0.013571417
000180 72 00 12 bc 82 44 8b 3d 66 33 ba 3d 60 8f 28 bd
       -0.008911239 0.06800176 0.09091835 -0.041152358
000190 cc 46 47 3d 41 67 ef bc a9 ab 8f bd e8 a6 fc bb
       0.0486515 -0.02922404 -0.070151635 -0.0077103265
0001a0 10 96 02 bd 2e d1 38 bc cc 33 db 3c a0 b5 93 bd
       -0.031881392 -0.011280341 0.026758097 -0.072123766
0001b0 ef a8 02 3d a4 e5 c0 3c eb b8 9c bb 70 5a c9 3d
       0.03189939 0.023547001 -0.004782786 0.09831703
0001c0 36 89 a3 3c 75 74 92 bb 5e c2 05 bd f4 7f 22 3d
       0.019962888 -0.004469449 -0.032656066 0.039672807
0001d0 c1 55 44 bd 91 16 93 bc 67 00 7f bd 33 26 53 3c
       -0.047933344 -0.017955096 -0.062256243 0.012887525
0001e0 26 fc 74 bd 30 5d 08 3d 2b 1f 67 bd 60 03 1c 3d
       -0.05981078 0.033291996 -0.05642621 0.038089156
0001f0 d8 14 b2 3d 82 a6 68 bd 9a 40 7a 3b 65 df 8c 39
       0.08695382 -0.05679942 0.0038185478 0.00026869323
000200 92 a6 34 bd cf ea 8d 3d b6 d3 21 bc fe 63 ba bd
       -0.044104166 0.06929552 -0.009877136 -0.09101103
000210 31 f5 86 bd 4e 4a c9 bd eb 9b ea 3b c9 a1 fd bc
       -0.06589735 -0.098286256 0.0071597 -0.030960934
000220 fb 72 ca bc ce 50 fb bc 84 3c 41 bc d3 49 ca bc
       -0.02471303 -0.03067818 -0.011794213 -0.024693405
000230 46 19 83 bd 91 e2 66 3b e2 7d 4e bc c7 e6 ae 3d
       -0.06401305 0.003523026 -0.012603255 0.08540111
000240 4e 75 5d bc 62 08 02 bc b3 9c cf 3d 22 3c 0c 3e
       -0.013516737 -0.007936569 0.1013731 0.13694814
000250 45 d1 a7 3d aa 47 13 3e 66 f0 e5 3d 75 6a 94 3c
       0.08194212 0.14382806 0.11227493 0.018117169
000260 1f 93 d3 3c 7d db 21 be c2 57 62 bd bd 02 02 3d
       0.025826989 -0.15806384 -0.055259474 0.031740893
000270 0e d8 8e ba bc d1 72 bd 48 2f bb 3a 03 0d d3 bd
       -0.001089813 -0.05928205 0.0014281059 -0.10305216
000280 51 7d 42 3d 22 b0 23 3e 2f 43 19 3e bb d0 0e 3e
       0.047482792 0.15985158 0.14967035 0.13946812
000290 88 1c e0 3d 20 25 f3 bd 21 88 73 be 5b dc 00 bd
       0.10942942 -0.118723154 -0.23782398 -0.031460147
0002a0 8f 72 59 3d 48 2d da 3b 2a b4 ff 3d 2b 22 20 3d
       0.053087767 0.00665823 0.124855354 0.039095085
0002b0 df c7 61 bb e3 1c 25 3c f6 d6 dd 3d 7f e0 17 3e
       -0.0034451408 0.010077688 0.10832016 0.14831732
0002c0 84 69 35 3e f4 38 34 bc 6c c6 15 3e 94 dc c5 3c
       0.17716032 -0.010999907 0.14626473 0.024153031
0002d0 23 ad 45 3d fb b7 a5 3d f8 fc 26 3b bf 2a 2e 3c
       0.04826082 0.08091732 0.002548037 0.010630309
0002e0 2f ee a8 3d fe 01 d0 bd 60 c0 7f bd e9 95 10 bd
       0.08248555 -0.1015663 -0.062439322 -0.035299215
0002f0 5d 12 00 be 30 57 e9 3d 1e 41 82 3e 90 e4 44 3d
       -0.12507005 0.11393583 0.25440305 0.048069537
000300 27 b3 4e bc 15 c6 6d be 41 1c 20 be f4 bb 50 3d
       -0.012615955 -0.23220094 -0.15635778 0.050960496
000310 9e d7 b8 3d 02 f6 a3 3e 65 0c c2 bd 1e 51 33 3e
       0.09025501 0.32023627 -0.0947502 0.17511413
000320 5d 03 7b bd 1c f7 a2 bc b0 32 29 3d 1f a3 23 bd
       -0.061282504 -0.019893222 0.041308105 -0.039950486
000330 8f 9c 26 3d 4c 47 b6 3e b6 29 d5 3b f6 98 56 be
       0.04067665 0.3560127 0.0065052165 -0.20956787
000340 17 81 94 3d 9b 1e c9 bd 69 9a ce 3d fe 72 34 3e
       0.072511844 -0.09820291 0.10088045 0.17621991
000350 d6 5d b6 3d dd 7b da 3c 42 67 6a 3d dd 51 54 3c
       0.089046165 0.02667039 0.05722738 0.012958971
000360 30 f1 b4 3c c2 4c d9 bc ca 1d 8f 3d 86 65 23 3d
       0.022087663 -0.026525859 0.06988104 0.039891742
000370 b3 ce 28 bd c9 64 bb 3d 75 a2 1c be a3 9a cb 3c
       -0.04121275 0.091500826 -0.15296347 0.02485401
000380 ff b8 4a 3c c6 8d df 3d 00 b9 58 bd 8a 48 c1 3d
       0.012373208 0.10915713 -0.052910805 0.09437664
000390 9b c7 21 3e 14 5a d8 bc 40 79 b9 bd e4 a3 3d bd
       0.157988 -0.02641014 -0.0905633 -0.046298876
0003a0 49 75 88 3c 36 61 c1 bd 22 0c 6c bd b2 52 cc bb
       0.016657488 -0.0944237 -0.05762876 -0.006235444
0003b0 d1 a3 0c be 5e 2f 03 3e 31 04 96 3d 2b 3f dd 3d
       -0.13734366 0.12811038 0.07325018 0.10803064
0003c0 e9 b0 13 bc 78 42 4f 3d 92 7f 29 bd b1 1d 17 3e
       -0.009014347 0.0506005 -0.041381426 0.1475742
0003d0 c7 ad 8f 3d 6e 16 d0 bd 0c f1 c4 be 9c 59 5d be
       0.07015567 -0.10160528 -0.38465154 -0.21616215
0003e0 91 d6 09 3e a0 dd 8e 3e 38 99 33 bc 59 55 20 3e
       0.13460757 0.2790346 -0.010961823 0.15657558
0003f0 0c 87 b4 bd 53 23 9d bc 53 72 8c bd 52 c2 95 bc
       -0.08814821 -0.019181883 -0.06857743 -0.018281136

decoder.0.bias f4 [16]
000000 e3 9e fe 3d e4 71 c9 3b a3 49 b0 bd 95 7d 7a 3d
       0.12432649 0.00614761 -0.08607795 0.06115492
000010 17 d3 36 3d 16 fc d6 bd dd 70 af 3c 28 04 86 3b
       0.044634905 -0.104973 0.021416122 0.004089851
000020 f7 4a 97 3d 0c 2f 82 bd 87 1a c1 3d c3 4d 6e 3c
       0.07387345 -0.0635663 0.09428888 0.014544907
000030 cb 5d 0b 3b 36 64 b4 3d 95 63 c5 3d 04 27 33 3d
       0.0021265622 0.08808176 0.096381344 0.04373838

decoder.2.weight f4 [16, 1, 3, 3]
000000 53 28 94 be a6 80 10 3e 86 f2 db bb 80 10 c9 be
       -0.28937015 0.14111575 -0.0067122607 -0.392704
000010 87 98 c4 be 39 42 c4 be 79 ce 11 3e 3e 84 40 be
       -0.3839762 -0.38331774 0.1423892 -0.18800446
000020 10 18 62 3e cc 6c 76 be 03 9e a9 be 49 ed 4c 3e
       0.22079492 -0.2406494 -0.33128366 0.20012392
000030 d6 04 a8 be 81 e2 53 be 6c d2 89 3e 32 7a 4a be
       -0.3281619 -0.20691873 0.26918352 -0.19773176
000040 e1 57 a4 bd 12 b3 0d 3e 4b 0a 5a 3e 24 13 fb 3d
       -0.08024574 0.13837841 0.21292989 0.1225951
000050 43 4d b2 bc 70 fe 4d 3e cb e7 1b 3f b7 00 f5 3e
       -0.021765357 0.20116591 0.60900563 0.47852108
000060 2a 89 91 3c 77 94 c6 3e 4a c2 f5 3e 00 b7 60 3e
       0.0177656 0.38785145 0.47999793 0.21944809
000070 c7 8c 92 be 5b ba ae bd 8e 95 a8 3d 9c 4b 04 be
       -0.2862303 -0.08531638 0.0823165 -0.12919468
000080 eb 3f 62 be 7e 7d 44 3e 3a 5e aa be c5 eb 3d be
       -0.22094695 0.19188496 -0.33275014 -0.1854697
000090 e6 ad 13 3e 77 e9 80 be 4c 86 b1 3d e8 7f 42 3e
       0.14421806 -0.2517812 0.08668193 0.18994105
0000a0 ad af cc bd 97 21 82 3d 1e 02 8a be 02 f1 82 be
       -0.09994445 0.06354063 -0.2695474 -0.255745
0000b0 4c 0a 06 be b8 4e 51 3e 9d 57 b4 3d 89 66 b7 3d
       -0.13089865 0.20440185 0.088057734 0.08955104
0000c0 ba 05 03 3f 12 c9 b2 3e e3 c6 98 3e ea 78 aa 3e
       0.51180613 0.3491903 0.2983924 0.33295375
0000d0 54 d0 b7 3e ed ac 9c bb 75 0d 8c 3e f6 f8 a6 be
       0.3590113 -0.0047813565 0.27354017 -0.32611817
0000e0 9d e2 0e 3e e9 8e 65 3e 97 92 54 3e 71 71 0a be
       0.13953634 0.22417797 0.20759045 -0.13519837
0000f0 a6 29 1a be 27 6e bd 3e e0 0a 12 3e 8b 37 4c 3e
       -0.1505495 0.36998102 0.14261961 0.19943063
000100 5e d3 57 be e5 17 b5 bd 06 42 d4 bd 7d 75 9e be
       -0.21076724 -0.08842448 -0.103641555 -0.3094901
000110 fa 97 c8 bc ba ad e9 3c 89 8f 10 be ce 0a 31 be
       -0.02448653 0.028525222 -0.14117254 -0.17289278
000120 55 76 ab be a0 8e 22 3e 71 2c be bd 86 d2 01 be
       -0.33488718 0.1587472 -0.0928582 -0.12677965
000130 8f 8d 78 3e 75 c0 2c 3d 7c 00 c1 ba 48 52 35 be
       0.2427275 0.04217573 -0.0014724876 -0.17707169
000140 0a 9f 2e be 37 ae 5e 3e c4 28 b5 3e ab 32 3a bd
       -0.17052856 0.21746145 0.35382664 -0.045458477
000150 e5 79 aa 3e 96 60 b2 3e f7 88 6e 3d e4 e8 ed 3d
       0.33296123 0.34839314 0.05823609 0.11616686
000160 3f 62 b3 3d f6 a0 7c 3c 29 0e 28 3d b5 3d 18 3e
       0.08758973 0.015419235 0.04102913 0.1486729
000170 c2 8c a8 3d 3b bb ed bd 42 48 c4 be 6e ea 25 bd
       0.082299724 -0.11607977 -0.38336378 -0.040506773
000180 5b ce 92 be c5 86 ca bd 6e 1d 4c be 85 56 35 be
       -0.28673062 -0.098889865 -0.19933102 -0.17708786
000190 f2 8d 87 be e9 e2 cb be f9 82 4b bd 1c 5a 7a bd
       -0.26475483 -0.39821556 -0.049685452 -0.06112109
0001a0 74 5d 26 bd d8 db 48 3e 06 54 6f 3e e0 78 9f 3e
       -0.040616468 0.19615114 0.23371896 0.31146908
0001b0 f9 e9 59 be 05 1b 64 be f2 ba 6f 3e 1e 76 81 3e
       -0.2128066 -0.22275932 0.23411158 0.2528543
0001c0 04 60 8f bd 3d c0 c8 bd 37 54 ac be b2 23 a8 be
       -0.070007354 -0.098022915 -0.33658 -0.32839733
0001d0 a0 11 9f be a4 a1 02 be 5f b5 9b 3d c8 fa 96 be
       -0.31068134 -0.12756974 0.07602953 -0.29488206
0001e0 05 19 1b 3e 1c 9b 87 3d a9 1c 83 be db 0a 57 be
       0.15146263 0.06621382 -0.25607803 -0.21000235
0001f0 99 4f 8d 3d eb 23 83 bd bf 1f 9f be ba 57 29 bf
       0.06899948 -0.06403335 -0.31078908 -0.66149485
000200 f3 b8 d8 bd 27 07 1e bf 73 07 20 bf 4d 5a d3 bc
       -0.10582151 -0.61729664 -0.62511367 -0.025799895
000210 b5 14 aa bd d2 62 7f bd ac c5 ef 3e a9 0a ae be
       -0.08304731 -0.0623501 0.468305 -0.33992508
000220 53 59 23 3d 0f 97 94 be 48 ac 89 be cd ee af be
       0.039880108 -0.290215 -0.26889253 -0.34361878
000230 41 d8 c9 3d c6 51 5f be 94 8c 5d bd f6 d9 df bd
       0.098557 -0.21808538 -0.054089144 -0.109302446
